…
torch.Size([64, 3, 32, 32])
torch.Size([64])
Saving plot for a sample to ascertain RF required for edges & gradient D:\PG-ML\eva4\week7\consolidated\data\data_stats.png
Clipping input data to the valid range for imshow with RGB data ([0..1] for floats or [0..255] for integers).
Saving plot 10 class samples to D:\PG-ML\eva4\week7\consolidated\data\plot_class_samples.png
cuda
----------------------------------------------------------------
        Layer (type)               Output Shape         Param #
================================================================
            Conv2d-1            [-1, 3, 32, 32]              27
            Conv2d-2           [-1, 64, 32, 32]             192
   SeparableConv2d-3           [-1, 64, 32, 32]               0
       BatchNorm2d-4           [-1, 64, 32, 32]             128
           Dropout-5           [-1, 64, 32, 32]               0
              ReLU-6           [-1, 64, 32, 32]               0
            Conv2d-7           [-1, 64, 32, 32]             576
            Conv2d-8          [-1, 128, 32, 32]           8,192
   SeparableConv2d-9          [-1, 128, 32, 32]               0
      BatchNorm2d-10          [-1, 128, 32, 32]             256
          Dropout-11          [-1, 128, 32, 32]               0
             ReLU-12          [-1, 128, 32, 32]               0
        MaxPool2d-13          [-1, 128, 16, 16]               0
           Conv2d-14           [-1, 64, 16, 16]           8,192
      BatchNorm2d-15           [-1, 64, 16, 16]             128
          Dropout-16           [-1, 64, 16, 16]               0
             ReLU-17           [-1, 64, 16, 16]               0
           Conv2d-18           [-1, 64, 16, 16]             576
           Conv2d-19          [-1, 128, 16, 16]           8,192
  SeparableConv2d-20          [-1, 128, 16, 16]               0
      BatchNorm2d-21          [-1, 128, 16, 16]             256
          Dropout-22          [-1, 128, 16, 16]               0
             ReLU-23          [-1, 128, 16, 16]               0
        MaxPool2d-24            [-1, 128, 8, 8]               0
           Conv2d-25             [-1, 64, 8, 8]           8,192
      BatchNorm2d-26             [-1, 64, 8, 8]             128
          Dropout-27             [-1, 64, 8, 8]               0
             ReLU-28             [-1, 64, 8, 8]               0
           Conv2d-29             [-1, 64, 8, 8]             576
           Conv2d-30            [-1, 128, 8, 8]           8,192
  SeparableConv2d-31            [-1, 128, 8, 8]               0
      BatchNorm2d-32            [-1, 128, 8, 8]             256
          Dropout-33            [-1, 128, 8, 8]               0
             ReLU-34            [-1, 128, 8, 8]               0
        MaxPool2d-35            [-1, 128, 4, 4]               0
           Conv2d-36             [-1, 64, 4, 4]           8,192
      BatchNorm2d-37             [-1, 64, 4, 4]             128
          Dropout-38             [-1, 64, 4, 4]               0
             ReLU-39             [-1, 64, 4, 4]               0
           Conv2d-40             [-1, 64, 4, 4]             576
           Conv2d-41             [-1, 64, 4, 4]           4,096
  SeparableConv2d-42             [-1, 64, 4, 4]               0
      BatchNorm2d-43             [-1, 64, 4, 4]             128
          Dropout-44             [-1, 64, 4, 4]               0
             ReLU-45             [-1, 64, 4, 4]               0
        AvgPool2d-46             [-1, 64, 1, 1]               0
           Conv2d-47             [-1, 10, 1, 1]             640
================================================================
Total params: 57,819
Trainable params: 57,819
Non-trainable params: 0
----------------------------------------------------------------
Input size (MB): 0.01
Forward/backward pass size (MB): 10.77
Params size (MB): 0.22
Estimated Total Size (MB): 11.01
----------------------------------------------------------------
Model inference starts on CIFAR10 dataset
…
